…
	image_augmentation_K: 2
	image_augmentation_M: 2
	image_augmentation_actor_critic_same_aug: True
Subconfig: rl
	sampled_seq_len: 64
	buffer_size: 1000000.0
	batch_size: 32
	rollouts_per_iter: 1
	num_updates_per_iter: 100
	num_init_rollouts: 5
Subconfig: eval
	interval: 20
	num_rollouts: 20
---------------------- 
 
Init feature extractor:  6 ;  32 ;  <function relu at 0x15171b0b67a0>
Init feature extractor:  1 ;  32 ;  <function relu at 0x15171b0b67a0>
Init feature extractor:  6 ;  164 ;  <function relu at 0x15171b0b67a0>
Critic: 
Critic_RNN(
  (image_encoder): ImageEncoder(
    (cnn): Sequential(
      (0): Conv2d(3, 8, kernel_size=(3, 3), stride=(1, 1))
      (1): ReLU()
      (2): Conv2d(8, 16, kernel_size=(3, 3), stride=(1, 1))
      (3): ReLU()
    )
  )
  (image_encoder_embedder_A): ImageEncoder_Embedder(
    (linear): Sequential(
      (0): Linear(in_features=57600, out_features=200, bias=True)
      (1): ReLU()
      (2): Linear(in_features=200, out_features=100, bias=True)
      (3): ReLU()
    )
  )
  (image_encoder_embedder_B): ImageEncoder_Embedder(
    (linear): Sequential(
      (0): Linear(in_features=57600, out_features=200, bias=True)
      (1): ReLU()
      (2): Linear(in_features=200, out_features=100, bias=True)
      (3): ReLU()
    )
  )
  (action_embedder): FeatureExtractor(
    (fc): Linear(in_features=6, out_features=32, bias=True)
  )
  (reward_embedder): FeatureExtractor(
    (fc): Linear(in_features=1, out_features=32, bias=True)
  )
  (rnn): LSTM(164, 512)
  (current_shortcut_embedder): FeatureExtractor(
    (fc): Linear(in_features=6, out_features=164, bias=True)
  )
  (qf1): FlattenMlp(
    (fc0): Linear(in_features=776, out_features=512, bias=True)
    (fc1): Linear(in_features=512, out_features=512, bias=True)
    (fc2): Linear(in_features=512, out_features=512, bias=True)
    (last_fc): Linear(in_features=512, out_features=1, bias=True)
  )
  (qf2): FlattenMlp(
    (fc0): Linear(in_features=776, out_features=512, bias=True)
    (fc1): Linear(in_features=512, out_features=512, bias=True)
    (fc2): Linear(in_features=512, out_features=512, bias=True)
    (last_fc): Linear(in_features=512, out_features=1, bias=True)
  )
)
Init feature extractor:  6 ;  32 ;  <function relu at 0x15171b0b67a0>
Init feature extractor:  1 ;  32 ;  <function relu at 0x15171b0b67a0>
Actor: 
Actor_RNN(
  (image_encoder): ImageEncoder(
    (cnn): Sequential(
      (0): Conv2d(3, 8, kernel_size=(3, 3), stride=(1, 1))
      (1): ReLU()
      (2): Conv2d(8, 16, kernel_size=(3, 3), stride=(1, 1))
      (3): ReLU()
    )
  )
  (image_encoder_embedder_A): ImageEncoder_Embedder(
    (linear): Sequential(
      (0): Linear(in_features=57600, out_features=200, bias=True)
      (1): ReLU()
      (2): Linear(in_features=200, out_features=100, bias=True)
      (3): ReLU()
    )
  )
  (image_encoder_embedder_B): ImageEncoder_Embedder(
    (linear): Sequential(
      (0): Linear(in_features=57600, out_features=200, bias=True)
      (1): ReLU()
      (2): Linear(in_features=200, out_features=100, bias=True)
      (3): ReLU()
    )
  )
  (action_embedder): FeatureExtractor(
    (fc): Linear(in_features=6, out_features=32, bias=True)
  )
  (reward_embedder): FeatureExtractor(
    (fc): Linear(in_features=1, out_features=32, bias=True)
  )
  (rnn): LSTM(164, 512)
  (policy): TanhGaussianPolicy(
    (fc0): Linear(in_features=612, out_features=512, bias=True)
    (fc1): Linear(in_features=512, out_features=512, bias=True)
    (fc2): Linear(in_features=512, out_features=512, bias=True)
    (last_fc): Linear(in_features=512, out_features=6, bias=True)
    (last_fc_log_std): Linear(in_features=512, out_features=6, bias=True)
  )
)
buffer RAM usage: 11.48 GB
Collecting train stats
[CW] ---- Iteration:     0 ----
[CW] collect: return: 10.36030, steps: 1000.00000, total_steps: 6000.00000
[CW] train: qf1_loss: 3.38135, qf2_loss: 3.42006, policy_loss: -7.83227, policy_entropy: 4.09746, alpha: 0.98504, time: 68.38284
[CW] eval: return: 15.22327, steps: 1000.00000
[CW] ---------------------------
…
